torchscript/L1/models/net.pt (torch, 108986 bytes, 3 tensors)

weight f4 [256, 100]
-0.08298675 0.0018654943 -0.043376017 -0.029670645 0.03488883 0.050685238 -0.057270862 0.021068824
-0.00697875 -0.023359 -0.018279184 0.052448463 0.05586758 0.019499004 0.044189133 0.040382754
-0.05081277 -0.026681995 0.09895579 -0.03426523 0.011153352 -0.06441831 0.04466028 0.04645356
0.034532346 0.019759273 0.07583876 0.060871016 -0.079287246 0.064620316 -0.06814327 -0.0545545
-0.060031917 0.059286546 0.08928639 -0.09442327 0.039440643 0.025475407 0.006182015 -0.062001493
0.070941985 0.0743474 -0.046418216 -0.056836274 -0.09035613 0.0067857266 -0.09626677 0.021204341
-0.059073832 -0.06784159 -0.07869001 -0.036418226 0.096845664 -0.027605832 0.096303776 -0.06650221
0.032945193 0.08838613 -0.09643052 0.065081775 -0.04641788 -0.08695578 0.059913646 -0.02186128
0.06382042 0.08237266 -0.08183292 0.08461412 -0.07086917 -0.09845407 -0.08957895 -0.07803811
-0.086713314 0.072038166 0.067779265 -0.046442118 -0.015210152 0.07365054 -0.08453864 -0.03925983
-0.014843702 0.0014617682 0.07717214 0.035793018 0.00083100796 0.0064370753 -0.061258364 0.020130074
0.03345393 -0.06395127 0.057124056 -0.020479048 0.09832996 -0.027804876 0.069600485 -0.03709799
0.08456405 -0.07187616 0.07413345 -0.07587699 -0.09288853 0.03254476 0.08814066 0.029448688
-0.05536859 0.050528742 -0.06445839 -0.022237241 -0.043044448 -0.06176417 -0.016649222 -0.039884117
0.02838018 0.055013884 -0.06295426 -0.012624991 -0.055409003 0.08315507 0.067777835 0.00790962
0.029351069 -0.062431302 -0.052093852 -0.01303488 -0.08902885 0.091290295 0.017990505 -0.051371932
-0.08430165 -0.07911625 0.011547446 0.039777875 -0.023981823 -0.018850386 0.03284514 0.035553265
0.049813855 0.023882484 0.021318495 -0.05615722 -0.0048382403 0.021189665 -0.08727151 -0.020942677
-0.07040639 0.099833764 0.07143851 -0.07581091 0.090776876 0.067250274 0.047598638 -0.0042865993
-0.028580917 -0.085561715 0.011253881 -0.07856929 0.03389435 -0.060175695 0.05303837 -0.082891956
0.09815419 -0.05956986 0.008937395 0.0022817373 -0.04283867 0.018396819 -0.038417876 0.062630154
0.055210005 -0.027034461 0.016108608 -0.05079558 -0.04810096 -0.039490867 0.05152091 0.07691294
-0.09302862 -0.097084105 -0.005918205 -0.08507627 -0.08970698 -0.02838533 -0.014835394 0.004528284
-0.039781213 0.07709588 -0.06607737 -0.0044635534 0.013535726 0.024054814 -0.054928757 0.04720452
0.036843922 0.044383872 -0.09653813 -0.09421402 0.0036560774 -0.03854927 0.087376975 -0.0014228702
-0.044983663 0.09007341 -0.08813621 -0.043350566 0.09570228 0.0380118 -0.020103205 0.0737826
0.08501309 -0.024843633 -0.029725349 0.04685173 0.03302754 0.011995184 0.01235168 0.05466274
-0.060766637 0.07840909 0.08422327 -0.08381869 -0.025534177 -0.055880737 0.06442156 -0.051243424
0.07567755 0.06277122 -0.055608153 0.06979843 0.04809555 -0.042712178 -0.041527033 -0.08101403
0.017480684 -0.057167638 -0.060847867 -0.021333123 0.0160231 0.07266988 -0.050040998 -0.03408538
-0.088932134 -0.08710077 -0.047568966 -0.08279642 0.090957776 0.08227382 -0.008503926 -0.002932644
-0.056837726 -0.074031286 -0.0679701 0.08684667 0.046558857 -0.02570721 0.047921635 -0.01855955
00000000: f5f4 a9bd 9a83 f43a 0dab 31bd da0f f3bc
00000010: 97e7 0e3d 539b 4f3d da94 6abd 8798 ac3c
00000020: 00ae e4bb 605b bfbc 3abe 95bc 33d4 563d
00000030: 67d5 643d 60bc 9f3c aaff 343d 6368 253d
00000040: 0d21 50bd 3394 dabc 55a9 ca3d b359 0cbd
00000050: 8dbc 363c bfed 83bd b3ed 363d 1746 3e3d
00000060: ca71 0d3d 33de a13c 5a51 9b3d e353 793d
00000070: 5a61 a2bd a857 843d b38e 8bbd 8a74 5fbd
00000080: 07e4 75bd 73d6 723d c8db b63d fd60 c1bd
00000090: 838c 213d cdb1 d03c 8092 ca3b 47f5 7dbd
000000a0: 084a 913d 7343 983d 0721 3ebd 27cd 68bd
000000b0: a20c b9bd cd5a de3b 8327 c5bd bab4 ad3c
000000c0: 67f7 71bd 88f0 8abd 3a28 a1bd 472b 15bd
000000d0: 0557 c63d a025 e2bc ea3a c53d 5032 88bd
000000e0: 8af1 063d ca03 b53d 5d7d c5bd 9849 853d
000000f0: ad20 3ebd df15 b2bd 0368 753d 6d16 b3bc
00000100: 48b4 823d ffb2 a83d 0598 a7bd 2b4a ad3d
00000110: db23 91bd 4aa2 c9bd 2b75 b7bd 72d2 9fbd
00000120: c096 b1bd bf88 933d dbcf 8a3d 173a 3ebd
00000130: 0034 79bc 18d6 963d 9822 adbd eace 20bd
00000140: 0033 73bc cd98 bf3a 6d0c 9e3d b39b 123d
00000150: 00d8 593a 1aee d23b 0dea 7abd d3e7 a43c
00000160: fd06 093d e2f8 82bd eafa 693d adc3 a7bc
00000170: 3861 c93d 0dc7 e3bc b38a 8e3d 10f4 17bd
00000180: eb2f ad3d cf33 93bd 47d3 973d 6565 9bbd
00000190: 573c bebd a74d 053d 1783 b43d 603e f13c
000001a0: 2dca 62bd 3af7 4e3d c302 84bd e02a b6bc
000001b0: 604f 30bd 6dfc 7cbd f363 88bc 875d 23bd
000001c0: 8d7d e83c 3d56 613d 2aee 80bd 0dd9 4ebc
000001d0: 8df4 62bd 354d aa3d 1bcf 8a3d 5a97 013c
000001e0: a771 f03c f7b7 7fbd 5d60 55bd 4090 55bc
000001f0: c254 b6bd 68f6 ba3d d360 933c 606b 52bd
00000200: 58a6 acbd b307 a2bd 8031 3d3c 20ee 223d
00000210: 8775 c4bc 206c 9abc a088 063d 4da0 113d
00000220: 9d09 4c3d 33a5 c33c 20a4 ae3c 1d05 66bd
00000230: 1a8a 9ebb f395 ad3c 68bb b2bd fa8f abbc
00000240: 3a31 90bd a575 cc3d 5b4e 923d c042 9bbd
00000250: 3ae9 b93d 83ba 893d caf6 423d 9a76 8cbb
00000260: 8722 eabc fb3a afbd 3362 383c f0e8 a0bd
00000270: cdd4 0a3d ca7a 76bd c33e 593d 42c3 a9bd
00000280: 1005 c93d 87ff 73bd 276e 123c 3389 153b
00000290: 9a77 2fbd edb4 963c 105c 1dbd 3d44 803d
000002a0: e323 623d 6077 ddbc 33f6 833c 070f 50bd
000002b0: 8305 45bd 2dc1 21bd 9707 533d 8884 9d3d
000002c0: ca85 bebd 08d4 c6bd 80ed c1bb 783c aebd
000002d0: 4bb8 b7bd 5a88 e8bc 2710 73bc 0062 943b
000002e0: a0f1 22bd 72e4 9d3d 9253 87bd 0043 92bb
000002f0: f3c4 5d3c 9a0e c53c fafc 60bd 8759 413d
00000300: a7e9 163d ddcb 353d c8b5 c5bd 48f3 c0bd
00000310: cd9a 6f3b d7e5 1dbd b3f2 b23d 9a7f baba
00000320: ca40 38bd 6878 b83d c280 b4bd 5d90 31bd
00000330: 8fff c33d 43b2 1b3d 7aaf a4bc 551b 973d
00000340: 581b ae3d e084 cbbc 9382 f3bc 9ae7 3f3d
00000350: e347 073d 7387 443c b35e 4a3c 0ae6 5f3d
00000360: 70e6 78bd f294 a03d 407d ac3d 22a9 abbd
00000370: 0d2d d1bc 33e3 64bd 73ef 833d a0e4 51bd
00000380: d5fc 9a3d 338e 803d 60c5 63bd 7bf2 8e3d
00000390: d7ff 443d f7f2 2ebd 4018 2abd afea a5bd
000003a0: a733 8f3c 9d28 6abd 9d3b 79bd cdc2 aebc
000003b0: e042 833c f2d3 943d caf7 4cbd 1d9d 0bbd
000003c0: 0d22 b6bd e361 b2bd add7 42bd 2b91 a9bd
000003d0: 1248 ba3d 2d7f a83d 0d54 0bbc 9a31 40bb
000003e0: adce 68bd b79d 97bd e833 8bbd abdc b13d
000003f0: 80b4 3e3d ed97 d2bc 7a49 443d 330a 98bc

bias f4 [256]
-0.04085175 -0.03485924 0.09222802 -0.06769321 -0.033050146 -0.07035352 -0.014590085 0.098089054
-0.09001273 0.09558155 0.056866873 0.025401998 -0.08071917 -0.07564827 -0.009155608 0.012553739
0.025472213 0.07467077 0.030569507 0.06983911 -0.076825656 0.0238374 0.08916165 -0.04367404
0.037404694 -0.066554405 -0.074800566 -0.08368504 -0.02813772 -0.04444648 -0.020776236 0.05514387
-0.002907586 0.025170064 -0.027215052 -0.09539961 -0.07097872 -0.03501481 0.09819511 -0.091381826
0.00032016038 -0.0669721 -0.07352116 0.03920708 0.0006890416 0.0025016547 0.0929138 -0.011192429
-0.06720652 0.07622053 0.010160292 -0.035243955 0.061926533 0.021569693 -0.015432871 0.09254906
0.09970476 0.07573187 -0.06936101 0.042752802 0.07499843 -0.019443823 0.07517403 0.047912575
0.021351313 -0.032973386 0.012218559 0.059305407 0.045485485 -0.09571799 -0.0065127374 -0.09916528
0.025374651 0.079248525 -0.0890648 -0.044661414 0.021681583 0.05284945 -0.06288745 -0.05936966
-0.07538704 -0.0810884 0.04198089 0.09537368 0.08469512 -0.03831443 -0.058077108 0.009658957
0.07287183 -0.098855935 -0.027195847 0.073976986 -0.077563785 -0.056877505 -0.07318349 0.027825464
-0.016737713 -0.0023483753 -0.07928532 -0.013233447 0.018373145 0.07221402 0.0678126 2.8026105e-05
-0.05381259 0.048350275 0.08358925 -0.04057411 -0.010666072 0.06208637 -0.0634048 -0.042937946
-0.006845665 0.03787129 0.08798337 0.062078275 0.083416305 -0.007922721 -0.07419302 -0.056287766
0.027431834 0.05286745 -0.012706578 0.047691286 -0.066826425 -0.06403655 0.042094555 -0.06958357
0.08806687 -0.042227507 0.0122182965 0.036786437 0.09617032 -0.0974671 0.0809982 -0.01486634
0.08112335 0.0133844735 0.092050545 0.005390084 0.021316374 0.05311227 0.049920406 0.078593075
0.011387981 0.07739996 -0.021749258 -0.041897085 0.04167321 -0.016483486 0.043157186 0.013833451
-0.06102517 -0.014005494 0.09242376 0.07857191 -0.04915842 -0.060328245 -0.041223645 0.016309394
0.0005715728 -0.023327637 0.015796507 -0.04262054 -0.09510746 0.04641464 0.0652398 0.050379194
0.062124085 -0.0021234273 0.007468808 -0.032470133 0.074450426 -0.019955909 0.05392536 -0.07371255
-0.021532644 -0.013415361 0.0017898679 -0.019149113 0.020861102 0.08871283 0.09925663 -0.0715037
-0.047362234 0.02766403 -0.046772074 -0.08278797 0.08799022 0.088269286 -0.07529769 0.0690012
-0.077453844 -0.0028255344 0.05660764 -0.003029883 -0.03950901 0.055983126 -0.077636436 -0.005272973
-0.084943905 0.07722535 -0.07622836 -0.00753485 -0.056209482 0.047677066 0.0056689978 -0.07052294
0.012819088 0.011084342 0.09427247 0.03017242 -0.057098594 -0.009690309 0.05282488 -0.098178506
-0.046371438 -0.052803695 -0.037700843 -0.012189448 -0.09244778 0.0033705353 0.013870835 -0.08680816
-0.09332253 -0.06359964 -0.05435256 -0.07391429 0.024662351 -0.060976055 -0.010034561 0.014724565
0.03908912 0.0869536 -0.031968404 0.05714841 0.05320201 -0.068290666 -0.030285751 0.033179082
0.07253412 0.07580518 -0.085406974 0.0449914 0.09031135 0.03668202 0.076178625 0.044470906
0.014388645 0.028187787 0.00081379415 0.022411311 -0.023070538 0.04186373 -0.037791934 0.0607206
00000000: 2a54 27bd 90c8 0ebd 0be2 bc3d bda2 8abd
00000010: 975f 07bd 8215 90bd 400b 6fbc eae2 c83d
00000020: 9858 b8bd 42c0 c33d 3ded 683d da17 d03c
00000030: 1850 a5bd 7bed 9abd 6701 16bc 33ae 4d3c
00000040: 1aab d03c fdec 983d e76c fa3c cf07 8f3d
00000050: c556 9dbd a746 c33c 629a b63d 8de3 32bd
00000060: aa35 193d ad4d 88bd 0a31 99bd 1063 abbd
00000070: 1381 e6bc 830d 36bd ed32 aabc 8ade 613d
00000080: 338d 3ebb 7331 ce3c 1af2 debc df60 c3bd
00000090: 4b5d 91bd b06b 0fbd 851a c93d 6526 bbbd
000000a0: 33db a739 ab28 89bd 4392 96bd 9a97 203d
000000b0: cda0 343a cdf2 233b 9749 be3d 7360 37bc
000000c0: 92a3 89bd 8219 9c3d 5a77 263c f75b 10bd
000000d0: ada6 7d3d edb2 b03c 27da 7cbc 5d8a bd3d
000000e0: 0232 cc3d 5019 9b3d 250d 8ebd 901d 2f3d
000000f0: c798 993d a748 9fbc d8f4 993d fa3f 443d
00000100: f3e8 ae3c 1a0f 07bd 5a30 483c 3aea 723d
00000110: fd4e 3a3d cb07 c4bd cd68 d5bb 2b17 cbbd
00000120: 80de cf3c 0d4d a23d 9b67 b6bd e3ee 36bd
00000130: 939d b13c aa78 583d 23cb 80bd 9a2d 73bd
00000140: 8564 9abd ad11 a6bd 27f4 2b3d 4753 c33d
00000150: a374 ad3d 97ef 1cbd 43e2 6dbd 9a40 1e3c
00000160: d33d 953d fb74 cabd d3c9 debc 3f81 973d
00000170: c3d9 9ebd 63f8 68bd 3ae1 95bd 3af2 e33c
00000180: 871d 89bc 33e7 19bb 5860 a2bd 1ad1 58bc
00000190: 4783 963c f2e4 933d 55e1 8a3d 9a19 eb37
000001a0: 976a 5cbd f00a 463d d730 ab3d 0a31 26bd
000001b0: c0c0 2ebc 474e 7e3d 60da 81bd b3df 2fbd
000001c0: 9a51 e0bb ed1e 1b3d a030 b43d ca45 7e3d
000001d0: 2bd6 aa3d 4dce 01bc 83f2 97bd 008e 66bd
000001e0: bab8 e03c 8a8b 583d 402f 50bc f057 433d
000001f0: 4bdc 88bd 9825 83bd 576b 2c3d d581 8ebd
00000200: 675c b43d c0f6 2cbd 402f 483c 60ad 163d
00000210: f2f4 c43d d59c c7bd 62e2 a53d f391 73bc
00000220: 0024 a63d 8d4a 5b3c ff84 bc3d 4d9f b03b
00000230: ad9f ae3c 408c 593d 5779 4c3d 68f5 a03d
00000240: a794 3a3c df83 9e3d 802b b2bc 479c 2bbd
00000250: 87b1 2a3d 6008 87bc 97c5 303d b3a5 623c
00000260: 87f5 79bd 4d77 65bc ab48 bd3d 4fea a03d
00000270: 575a 49bd c01a 77bd 20da 28bd 479b 853c
00000280: 9ad5 153a 9a19 bfbc ad67 813c e092 2ebd
00000290: b3c7 c2bd 471d 3e3d 729c 853d 6a5a 4e3d
000002a0: d375 7e3d 3329 0bbb e7bc f43b 67ff 04bd
000002b0: 7779 983d 937a a3bc d7e0 5c3d 9bf6 96bd
000002c0: 3a65 b0bc 1acc 5bbc 009a ea3a 9ade 9cbc
000002d0: e7e4 aa3c 12af b53d 0f47 cb3d 8870 92bd
000002e0: e7fe 41bd ad9f e23c 1394 3fbd bd8c a9bd
000002f0: 3734 b43d 87c6 b43d ad35 9abd 8050 8d3d
00000300: 1fa0 9ebd 9a2c 39bb 6add 673d 0091 46bb
00000310: 33d4 21bd 904e 653d daff 9ebd e7c8 acbb
00000320: 12f7 adbd 5328 9e3d 9d1d 9cbd e7e6 f6bb
00000330: ea3b 66bd 0749 433d 00c3 b93b 556e 90bd
00000340: 2707 523c 1a9b 353c ed11 c13d 272c f73c
00000350: 37e0 69bd 1ac4 1ebc e75e 583d d011 c9bd
00000360: faef 3dbd b048 58bd 336c 1abd 40b6 47bc
00000370: 4355 bdbd 33e4 5c3b 8042 633c 7ac8 b1bd
00000380: e21f bfbd 8740 82bd caa0 5ebd 6060 97bd
00000390: b308 ca3c 07c2 79bd 0068 24bc 4d3f 713c
000003a0: ea1b 203d bb14 b23d 4df1 02bd 7314 6a3d
000003b0: 5aea 593d fadb 8bbd d319 f8bc cae6 073d
000003c0: c58c 943d bf3f 9b3d dae9 aebd e748 383d
000003d0: 28f5 b83d e33f 163d 8a03 9c3d 2027 363d
000003e0: 5abe 6b3c 13ea e63c cd54 553a ed97 b73c
000003f0: 6dfe bcbc 4d79 2b3d b7cb 1abd 2ab6 783d

weight f4 [1, 256]
-0.023570426 -0.046951063 0.024618544 0.055778913 -0.038200483 -0.057896405 -0.05948039 -0.018058851
-0.01540415 0.042597547 -0.024143219 0.014876835 0.05135271 0.02202639 -0.007545322 -0.0035884902
-0.030606054 -0.011045538 0.013157606 -0.005828306 0.027092375 -0.020846747 -0.038318366 0.014545873
-0.0025489926 0.059991628 0.023379996 0.047962904 -0.042608097 -0.047622964 -0.015742518 0.044128336
-0.060966916 -0.017928123 0.028546356 -0.03843742 0.057343222 -0.010825664 0.0072749853 -0.040618494
-0.010743871 0.01130379 0.028395154 0.009165548 0.057542413 0.031747393 0.013383634 -0.004435502
-0.028778829 -0.06186363 0.020912409 0.04488948 -0.04582444 -0.001067847 0.024398401 -0.0129081085
0.05311039 -0.0046934485 -0.05962508 -0.018443927 0.042804837 -0.03830532 -0.05221367 0.06056907
0.05820916 -0.003658928 -0.061746188 -0.0059660748 -0.036553122 -0.03483627 0.05152116 0.04704447
0.052258752 0.005499959 -0.04719647 -0.044259213 0.05062276 -0.034455866 0.025287427 0.055896357
0.010461614 0.033593915 0.015652053 0.022743285 -0.05089882 -0.026463315 0.02335158 0.021070272
-0.0079420805 -0.015653081 0.0061388314 -0.050749376 -0.019314118 0.056079157 -0.018871866 -0.02589158
-0.04510591 -0.05457931 -0.036133632 -0.00306651 0.041796893 -0.019129284 0.0004023388 -0.013458498
0.03603889 0.050128832 0.042632185 -0.009597935 -0.03377536 0.0045048 -0.0019209608 -0.034208618
0.021711484 0.008158363 -0.05051419 -0.027650967 -0.05596806 -0.035893336 0.044185013 -0.0048416853
-0.014047891 0.033183016 0.031295165 0.03529159 0.036400452 0.044811986 -0.027129784 -0.037221707
-0.041404113 0.018444419 0.0007285252 -0.03976743 -0.022520185 -0.031678878 -0.06071291 -0.0028175116
0.010679938 -0.0020673051 0.03722787 -0.050824128 0.009755321 -0.054726332 -0.033624 0.035950802
-0.048931748 0.019727558 -0.0098697245 -0.033707127 0.013748467 0.015664414 0.037007093 0.033758275
0.046547316 -0.045979887 0.0060592443 -0.029742196 -0.020851798 -0.019943386 0.03723178 -0.022573337
-0.045594797 0.039307848 -0.027544543 -0.04393158 0.012638152 0.03252598 0.012949005 0.0313391
0.031044148 -0.021486253 0.0031330138 -0.010392532 -0.054404497 -0.056386597 -0.012188904 0.025990628
0.051206574 -0.0022473708 0.019237846 0.025710016 -0.05902832 -0.03141793 0.055544913 -0.052957654
-0.013976209 -0.026647441 0.05020333 0.05286677 -0.048319697 -0.0039411485 -0.015452884 -0.028533868
-0.061673187 -0.057146706 0.029376268 0.04793627 0.034398355 0.032181524 -0.056333564 -0.023763478
-0.024336778 -0.02901844 0.008996159 0.038115606 -0.0072715282 -0.061571702 -0.021955736 -0.05249653
0.015510954 0.013825476 -0.016342573 -0.028080158 -0.05390252 0.026291505 -0.05049675 0.027076095
-0.017543979 -0.035016723 0.047569923 0.045693144 -0.03348557 0.059451275 0.015111953 0.05872176
-0.058679514 0.02688329 -0.006530829 -0.0149687305 0.028339028 -0.019498862 -0.04213655 0.016685292
0.040306583 0.019008107 -0.027765311 0.02524013 0.058836468 0.014712162 -0.052131444 0.056734055
0.054100372 -0.049534097 0.039598674 0.046137497 0.03477019 0.05513183 0.033798985 0.0073935464
0.04470057 -0.05673375 0.0379809 0.05645086 0.06001793 -0.026114263 0.049703978 0.044106357
00000000: c416 c1bc c24f 40bd d4ac c93c 6e78 643d
00000010: 1c78 1cbd c824 6dbd b6a1 73bd 28f0 93bc
00000020: b061 7cbc c47a 2e3d 00c8 c5bc f8bd 733c
00000030: 3857 523d b070 b43c c03e f7bb e02c 6bbb
00000040: 8cb9 fabc 58f8 34bc 0093 573c 60fb bebb
00000050: d4f0 dd3c ccc6 aabc b8f3 1cbd d051 6e3c
00000060: 000d 27bb c8b9 753d 6887 bf3c c074 443d
00000070: d485 2ebd 4c10 43bd 74f6 80bc eabf 343d
00000080: 72b8 79bd 00de 92bc 0cda e93c 8e70 1dbd
00000090: bae0 6a3d 205e 31bc 0063 ee3b 945f 26bd
000000a0: 1007 30bc 8833 393c f49c e83c 182b 163c
000000b0: 98b1 6b3d 8e09 023d 0847 5b3c b057 91bb
000000c0: 94c1 ebbc b864 7dbd 8050 ab3c 08de 373d
000000d0: 68b2 3bbd 00f7 8bba 28df c73c 887c 53bc
000000e0: 488a 593d 80cb 99bb 6e39 74bd b817 97bc
000000f0: 2054 2f3d 0ae6 1cbd 00de 55bd 4617 783d
00000100: ba6c 6e3d a0ca 6fbb 92e9 7cbd 107f c3bb
00000110: bab8 15bd 7ab0 0ebd da07 533d b4b1 403d
00000120: 460d 563d 0039 b43b 1651 41bd 2649 35bd
00000130: d059 4f3d 9821 0dbd 9427 cf3c 94f3 643d
00000140: 3067 2b3c c699 093d bc38 803c 2050 ba3c
00000150: 487b 50bd 98c9 d8bc d04b bf3c 909b ac3c
00000160: 801f 02bc e43a 80bc 4028 c93b 94de 4fbd
00000170: a438 9ebc 42b3 653d 2c99 9abc 941a d4bc
00000180: fac0 38bd 8e8e 5fbd dc00 14bd 80f7 48bb
00000190: 3833 2b3d 04b5 9cbc 00f1 d239 0881 5cbc
000001a0: 849d 133d e453 4d3d 169f 2e3d a840 1dbc
000001b0: 0858 0abd 009d 933b c0c8 fbba 561e 0cbd
000001c0: 48dc b13c a8aa 053c f8e7 4ebd 4884 e2bc
000001d0: c43e 65bd e404 13bd 58fb 343d 00a7 9ebb
000001e0: 2029 66bc eaea 073d 5c2f 003d ea8d 103d
000001f0: a418 153d c68c 373d 483f debc ca75 18bd
00000200: 5c97 29bd c018 973c 80fa 3e3a 2ce3 22bd
00000210: 407c b8bc b6c1 01bd 1aae 78bd 00a6 38bb
00000220: e8fa 2e3c a07b 07bb 407c 183d f62c 50bd
00000230: c8d4 1f3c b828 60bd 52b9 09bd 2641 133d
00000240: a86c 48bd b09b a13c a0b4 21bc 7c10 0abd
00000250: 4041 613c a852 803c c094 173d 1e46 0a3d
00000260: 66a8 3e3d 6855 3cbd a08c c63b e8a5 f3bc
00000270: 64d1 aabc 5060 a3bc 5a80 183d b8eb b8bc
00000280: 9cc1 3abd 4401 213d 18a5 e1bc 9af1 33bd
00000290: 4010 4f3c f639 053d 1028 543c 6e5d 003d
000002a0: 4c50 fe3c f003 b0bc 4053 4d3b 7045 2abc
000002b0: 40d7 5ebd a2f5 66bd f8b3 47bc 4cea d43c
000002c0: fcbd 513d a048 13bb b098 9d3c d09d d23c
000002d0: aec7 71bd 16b0 00bd 1083 633d 20ea 58bd
000002e0: 78fc 64bc bc4b dabc 02a2 4d3d d48a 583d
000002f0: e0ea 45bd c024 81bb 182e 7dbc dcbf e9bc
00000300: 069d 7cbd aa12 6abd 80a6 f03c d258 443d
00000310: 4ae5 0c3d c6d0 033d 06be 66bd a0ab c2bc
00000320: ec5d c7bc 14b8 edbc a064 133c 1c1f 1c3d
00000330: 0046 eebb 9c32 7cbd 84dc b3bc 9a06 57bd
00000340: a821 7e3c 4084 623c dce0 85bc 5c08 e6bc
00000350: e4c8 5cbd 4861 d73c aed5 4ebd b0ce dd3c
00000360: 64b8 8fbc b26d 0fbd aed8 423d bc28 3b3d
00000370: 2a28 09bd 2e83 733d 2098 773c 3a86 703d
00000380: ee59 70bd 583a dc3c 9000 d6bb 683f 75bc
00000390: 4027 e83c 14bc 9fbc 6097 2cbd 98af 883c
000003a0: 8418 253d e4b6 9b3c 1474 e3bc 64c4 ce3c
000003b0: 82fe 703d 480b 713c c887 55bd f861 683d
000003c0: 5a98 5d3d 44e4 4abd 3832 223d acfa 3c3d
000003d0: 306b 0e3d ead1 613d ce70 0a3d 9045 f23b
000003e0: f217 373d a661 68bd dc91 1b3d 0439 673d
000003f0: 5cd5 753d 94ed d5bc 6696 4b3d dea8 343d
